…
model.add(layers.Conv2D(64, (3, 3), activation=’relu’))\n5 model.add(layers.MaxPooling2D((2, 2)))\n124",
    "page": 128,
    "source": "data/ml-Ajay Anand.pdf"
  },
  {
    "text": "2026 Ajay Anand|ajay.anandfcs@kiit.ac.in|217 Campus 25A, KIIT Bhubaneswar\n16.1 T ensorﬂow tutorial\n6 model.add(layers.Conv2D(64, (3, 3), activation=’relu’))\n8 model.add(layers.Flatten())\n9 model.add(layers.Dense(64, activation=’relu’))\n10 model.add(layers.Dense(10))\n12 Here’s⌞the⌞complete⌞architecture⌞of⌞your⌞model:\n14 model.summary()\nModel: \"sequential\"\nLayer(type) Otput Shape Param #\nconv2d (Conv2D) (None, 30, 30, 32) 896\nmax_pooling2d (Max-\nPooling2D)\n(None, 15, 15, 32) 0\nconv2d_1 (Conv2D) (None, 13, 13, 64) 18,496\nmax_pooling2d_1\n(MaxPooling2D)\n(None, 6, 6, 64) 0\nconv2d_2 (Conv2D) (None, 4, 4, 64) 36,928\nﬂatten (Flatten) (None, 1024) 0\ndense (Dense) (None, 64) 65,600\ndense_1 (Dense) (None, 10) 650\nT otal params: 122,570 (478.79 KB)\nT rainable params: 122,570 (478.79 KB)\nNon-trainable params: 0 (0.00 B)\nT able 16.1: Summary of the CNN model\nExample 16.1 Show the calcuation of how the di/uniFB00erent numerical values in\ntable 16.1 were obtained.\nSolution As covered on board in class.",
    "page": 129,
    "source": "data/ml-Ajay Anand.pdf"
  },
  {
    "text": "T able 16.1: Summary o
…
